frozen_model/cbam.onnx (onnx, 11845 bytes, 9 tensors)

conv0.weight f4 [8, 1, 3, 3]
0	0xbf4d7011	-0.80249125
1	0xbf80a8ef	-1.0051554
2	0xbf2ecc55	-0.68280536
3	0xbf5a4504	-0.8526156
4	0xbe9d5ebd	-0.30736342
5	0xbe58c3c7	-0.21168433
6	0x3d3e80bf	0.0465095
7	0x3b94885a	0.004532856
8	0xbf3008d8	-0.68763494
9	0x3e80db68	0.25167394
10	0x3e5e435b	0.21705382
11	0xbe3532bd	-0.17695136
12	0xbea7efaf	-0.32800052
13	0xbe5f91a8	-0.21832907
14	0xbe912487	-0.2834818
15	0xbe998fef	-0.29992625
16	0xbeadd38c	-0.3395046
17	0xbe9185cc	-0.2842239
18	0xbf4edc51	-0.80804926
19	0x3e1a5316	0.15070757
20	0x3eb65c96	0.35617512
21	0xbf3dabfc	-0.7409055
22	0x3a5b2fb0	0.0008361293
23	0x3c822539	0.01588689
24	0xbf1536e1	-0.58286864
25	0x3e4273af	0.18989442
26	0xbe18977f	-0.14901541
27	0x3e73522f	0.2376182
28	0x3cdc36e8	0.02688165
29	0x3eae5bab	0.34054312
30	0x3ebdd4bc	0.37076366
31	0xbecf12f0	-0.40444136
32	0xbc3c9753	-0.011510688
33	0xbea9a726	-0.33135337
34	0x3e207214	0.15668517
35	0xbf45fac1	-0.77335745
36	0xbce508f0	-0.027958363
37	0x3e8db135	0.2767426
38	0xbb69281f	-0.0035576893
39	0xbf6cc9f0	-0.9249563
40	0xbf2a7f0c	-0.6660011
41	0x3e1c7597	0.15279232
42	0xbedf319e	-0.43592542
43	0x3e084a3b	0.13309567
44	0x3e850f56	0.25988263
45	0x3d082751	0.03324062
46	0x3e8ca629	0.2747052
47	0xbd9100c4	-0.07080224
48	0x3db251b7	0.08706992
49	0xbe90bf5f	-0.28271005
50	0x3d4926f4	0.049109414
51	0x3e459b7d	0.19297595
52	0x3e75cbc4	0.24003512
53	0x3babfc75	0.005248601
54	0x3e9a4e37	0.30137798
55	0x3e1f77e7	0.15573083
56	0xbde492a8	-0.11160785
57	0xbd726110	-0.059174597
58	0x3dfeae62	0.12435605
59	0x3e4f2ff4	0.20233136
60	0x3e462711	0.1935084
61	0x3e099523	0.13435797
62	0x3e367847	0.1781932
63	0x3e42d6a5	0.19027193
64	0xbe00df46	-0.12585172
65	0xbe2757ed	-0.16342135
66	0x3e198c73	0.14994983
67	0x3dd5eafe	0.10445212
68	0xbd9d17fd	-0.07670591
69	0x3df9faaa	0.122060135
70	0x3be47b9d	0.0069727437
71	0x3d89f27c	0.06735703

conv0.bias f4 [8]
0	0x3e77894a	0.24173465
1	0x3edfb88d	0.4369549
2	0xba1fd35c	-0.00060968637
3	0xbdb810e5	-0.089875974
4	0x3c8eb1aa	0.017418701
5	0x3ee52b64	0.44759667
6	0xbf2297e0	-0.6351299
7	0x3e8c8676	0.27446336

conv1.weight f4 [16, 8, 3, 3]
0	0x3d730fa2	0.05934108
1	0xbdc1df86	-0.09466462
2	0xbe34bca3	-0.17650084
3	0x3d45f8d0	0.04833299
4	0x390db572	0.00013514402
5	0x3e3aee66	0.18255004
6	0x3e0141be	0.12622735
7	0x3d4b2309	0.04959396
8	0x3daba713	0.08381476
9	0xbd79662c	-0.060888454
10	0xbc8c4ddc	-0.01712697
11	0xbc106f47	-0.008815593
12	0x3bfae31d	0.0076564685
13	0x3d545688	0.051840335
14	0xbd7ce240	-0.061739206
15	0x3d0bb2d1	0.03410608
16	0xbd8a2897	-0.06746023
17	0xbdab131c	-0.08353254
18	0x3dd53b7e	0.10411738
19	0x3de1aff8	0.110198915
20	0x3d93e105	0.072206534
21	0x3e2dfab4	0.16990167
22	0x3d7d18a3	0.061791074
23	0x3d4cf5a8	0.050038964
24	0x3e2d79be	0.16940972
25	0x3dfd6ce5	0.123742856
26	0x3e00c99a	0.12576905
27	0x3c8ad8e2	0.01694912
28	0xbdb98605	-0.09058765
29	0xbd0badb7	-0.034101214
30	0x3dc8f883	0.09813025
31	0x3da7ea96	0.081990406
32	0xbd1ddb0d	-0.03853898
33	0xbcb1a82b	-0.021686634
34	0xbd201e58	-0.039091438
35	0xbdbf5397	-0.09342115
36	0x3db86fe7	0.09005719
37	0x3db75f53	0.089537285
38	0x3dace183	0.084414504
39	0x3cd2c9ee	0.025731053
40	0x3dcccef2	0.10000409
41	0x3e1de0f4	0.15417844
42	0x3e584114	0.21118575
43	0x3deac52e	0.1146339
44	0xbcaff23d	-0.021477813
45	0x3d8a899b	0.067645274
46	0xbc7e66d0	-0.015527442
47	0xbcb64d6d	-0.022253716
48	0xbd54151e	-0.05177795
49	0xbc86b4ec	-0.016443692
50	0xbc435771	-0.011922703
51	0xbd42a3f4	-0.04751964
52	0xbe0e0405	-0.13868721
53	0xbdbb9bd2	-0.0916058
54	0xbd008dc2	-0.03138519
55	0xbdbe81fb	-0.093021356
56	0xbe17efbb	-0.14837544
57	0x3c59aede	0.0132863205
58	0xbcbb8700	-0.022891521
59	0xbcdb1de1	-0.026747646
60	0xbe0754ea	-0.13215986
61	0xbbf5c0ac	-0.007499775
62	0x3b11205c	0.0022144532
63	0x3cbcfd7f	0.023070095
64	0xbccf6500	-0.025316715
65	0xbaaed183	-0.0013337586
66	0xbd77e56f	-0.06052154
67	0xbdfe2521	-0.124094255
68	0x3dd93e6b	0.106076084
69	0x3c77163b	0.015080984
70	0x3dbae00c	0.09124765
71	0xbc997f5e	-0.018737491
72	0x3e0e2eee	0.1388509
73	0x3e4b3dad	0.19847746
74	0x3e078e2c	0.13237828
75	0x3e3ae27d	0.18250461
76	0x3e297866	0.16549835
77	0x3e095c99	0.1341423
78	0x3daf4067	0.08557206
79	0x3e1c5564	0.15266949
80	0x3e33b189	0.17548193
81	0x3d0ecd37	0.034863677
82	0x3d803ca7	0.062615685
83	0xbce9e647	-0.028552188
84	0x3ddd8c8c	0.10817823
85	0x3db9bab7	0.09068816
86	0xbcd0962d	-0.025462234
87	0x3e091002	0.13385013
88	0x3d0efb65	0.034907717
89	0x3dbfb43e	0.0936055
90	0xbe682916	-0.22671923
91	0xbe1c3a0f	-0.15256523
92	0xbcff52ac	-0.03116735
93	0xbe8b44cb	-0.27200922
94	0xbe00ac0d	-0.12565632
95	0xbd9a98ed	-0.075486995
96	0xbe49dd4a	-0.19713321
97	0xbe3d3882	-0.18478587
98	0x3cf4f595	0.029902259
99	0xbea68e0a	-0.32530242
100	0xbe963479	-0.29336908
101	0xbe23afda	-0.15985051
102	0xbed1318c	-0.40858114
103	0xbe9e2d42	-0.30893904
104	0xbe9a8cf3	-0.3018566
105	0xbed18157	-0.4091899
106	0xbedf0c80	-0.43564224
107	0xbe30ae96	-0.17254099
108	0xbdeb2e0d	-0.11483393
109	0xbe231447	-0.15925704
110	0xbdfadd27	-0.12249213
111	0xbe92c822	-0.28668314
112	0xbde0e114	-0.1098043
113	0xbda11d71	-0.07866944
114	0xbe6b8f89	-0.23003973
115	0xbda152c3	-0.07877114
116	0x3bae2146	0.005314025
117	0x3cc6fa6c	0.024289332
118	0x3a5a4484	0.00083262497
119	0xbcab0ff0	-0.020881623
120	0x3d912a65	0.07088164
121	0x3da8c8d6	0.082414314
122	0xbd98eb2a	-0.07466729
123	0x3d205fa2	0.039153703
124	0x3deff834	0.11717263
125	0xbd8a066f	-0.06739508
126	0xbeb5df8a	-0.3552211
127	0xbe7a8095	-0.24463113
128	0xbe64833a	-0.22315684
129	0xbe6e13f7	-0.23249803
130	0xbe7b8dab	-0.24565761
131	0xbe8f81ab	-0.28028616
132	0xbe20a6a9	-0.15688576
133	0xbda708cc	-0.08155975
134	0xbe2391db	-0.15973608
135	0xbcb13363	-0.021630948
136	0xbc195094	-0.00935759
137	0x3da02bf9	0.07820887
138	0xbd4d07ec	-0.050056383
139	0x3dde4e7e	0.10854815
140	0xbd09bb23	-0.033625733
141	0x3d95d9db	0.07316943
142	0xbd2f66f5	-0.042822797
143	0x3e041446	0.12898359
144	0x3e699489	0.22810568
145	0x3d639ac3	0.055567514
146	0x3e49dd2e	0.1971328
147	0x3e8c1b06	0.27364367
148	0x3e76325d	0.2404265
149	0x3e9739be	0.2953624
150	0x3e91855f	0.28422067
151	0x3eb9f495	0.36319414
152	0x3e2899f2	0.16464975
153	0x3dafad6e	0.08578001
154	0xbd1d147b	-0.03834961
155	0x3d238556	0.03992208
156	0x3e1f7158	0.15570581
157	0xbb4345ab	-0.0029796164
158	0xbd7b0c2f	-0.061290916
159	0x3de23348	0.11044937
160	0x3dbb76eb	0.09153541
161	0xbdf96f24	-0.121794015
162	0x3e6879e2	0.22702745
163	0x3ce2a2b3	0.027665472
164	0x3dab50e0	0.08365035
165	0x3e69cbfc	0.2283172
166	0x3e4faa92	0.20279911
167	0x3e576633	0.2103508
168	0x3d8ef452	0.06980194
169	0x3df2f75c	0.11863586
170	0x3d4cd20f	0.050005015
171	0x3c95268e	0.01820686
172	0x3d38ecbf	0.045147654
173	0xbc4b1e85	-0.012397413
174	0x3e32cdd0	0.17461324
175	0xbc49b15f	-0.012310355
176	0x3c80e353	0.015733397
177	0x3c9af41b	0.018915227
178	0xbce48591	-0.02789572
179	0xbb692fd1	-0.003558148
180	0xba2cc62f	-0.0006590811
181	0x3de2c20a	0.11072166
182	0x3e1263e5	0.14295919
183	0x3dc9f510	0.09861195
184	0x3e243c36	0.16038594
185	0x3d44970b	0.04799561
186	0x3e2fb114	0.17157394
187	0x3e23152e	0.15926048
188	0x3e446114	0.19177657
189	0xbc6ce9d8	-0.01446005
190	0xbdb551c1	-0.08853484
191	0x3c1b6d77	0.009486548
192	0x3cbef867	0.023311807
193	0x3b2770fa	0.0025549517
194	0xbdda1952	-0.10649361
195	0xbd2ae9f7	-0.041727033
196	0x3d17cb53	0.03705914
197	0xbde6328c	-0.1124011
198	0xbd8ee4eb	-0.069772564
199	0xbdc913cd	-0.0981823
200	0x3cde8c38	0.02716647
201	0x3c1f4792	0.009721654
202	0xbc71a58c	-0.014748942
203	0xbe4912b8	-0.19636047
204	0x3c0d74d6	0.008633813
205	0xbbf0f531	-0.007353448
206	0xbd0d76c4	-0.03453709
207	0xbce6c340	-0.028169274
208	0xbcccc75e	-0.02499741
209	0xbcaf58c3	-0.02140463
210	0x3d616778	0.055030316
211	0x3d17207a	0.036896206
212	0x3cef0be5	0.029180476
213	0x3e096c1e	0.1342015
214	0xbc306ea2	-0.010768564
215	0xbdd475f6	-0.10374062
216	0x3dc08882	0.09401037
217	0xbcd1a7d7	-0.025592728
218	0xbdd787e5	-0.10523967
219	0x3e5846ea	0.21120802
220	0x3d3f16a7	0.046652462
221	0x3de0c6c6	0.10975413
222	0x3d44d32a	0.048052944
223	0xbd9a8ef5	-0.07546798
224	0xbd1c322c	-0.038133785
225	0x3c88c083	0.01669336
226	0x3d6a3141	0.05717588
227	0xbd8b4292	-0.06799807
228	0x3dc2975d	0.095015265
229	0xbdb20a82	-0.086934105
230	0xbd319794	-0.043357447
231	0x3d951934	0.07280198
232	0x3ca6a76f	0.02034351
233	0x3c3b2205	0.011421685
234	0x3d991670	0.07474983
235	0x3e0c2837	0.13687216
236	0x3d5b5fea	0.053558268
237	0x3e858d53	0.26084384
238	0x3cd48b2c	0.025945269
239	0xbc463c1c	-0.012099292
240	0x3e3b3b36	0.18284306
241	0x3c20e8d3	0.009821135
242	0xbc8bcebd	-0.017066354
243	0x3dc10e4d	0.09426556
244	0xbe134bfe	-0.14384457
245	0xbd852516	-0.06501214
246	0x3e20fc91	0.15721346
247	0xbc7bdce8	-0.015372492
248	0xbb86073c	-0.004090218
249	0xbccbd0d8	-0.024879858
250	0x3e093f78	0.13403118
251	0xbd399a7f	-0.045313355
252	0x3e39181a	0.180756
253	0x3d372b09	0.044718776
254	0x3d069097	0.032852735
255	0x3e232494	0.15931922

conv1.bias f4 [16]
0	0x3c034d57	0.008014045
1	0x3c01c75f	0.007921069
2	0x3e0be890	0.13662934
3	0xbb9cae74	-0.0047815386
4	0x3c27fbf7	0.010252944
5	0xbdfd3f4d	-0.12365589
6	0x3d824df6	0.06362526
7	0x3e4d65ea	0.20058408
8	0x3e7b87a2	0.24563459
9	0x3cdbc5ba	0.026827682
10	0xbd22bb02	-0.039729126
11	0xbe6b005a	-0.22949353
12	0x3ca51e0c	0.020155929
13	0x3e4de88b	0.2010824
14	0x3e0fd9e4	0.14047962
15	0xbc0356ab	-0.008016269

cbam.channel_attention.shared_MLP.0.weight f4 [16, 16, 1, 1]
0	0xbe3dbb26	-0.18528423
1	0x3d7fa3de	0.062412135
2	0xbe6f553e	-0.23372361
3	0xbdb9e924	-0.09077671
4	0xbe715e6a	-0.23571172
5	0xbe54c3c5	-0.20777805
6	0x3d57348b	0.052540343
7	0x3db0015a	0.08594008
8	0x3ea2153c	0.31656826
9	0x3e65468f	0.22390197
10	0xbbc56632	-0.0060241455
11	0xbdd60676	-0.10450451
12	0xbe8180f7	-0.25293705
13	0x3d94a505	0.072580375
14	0xbca1e910	-0.019764453
15	0x3ee526e3	0.4475623
16	0x3e6e968b	0.23299615
17	0x3d88a07c	0.06671235
18	0xbc8c4466	-0.017122459
19	0x3dd82be2	0.10555245
20	0x3dbb88f0	0.09156978
21	0x3e0710e6	0.1319004
22	0xbe0275ac	-0.12740201
23	0x3e216010	0.15759301
24	0xbe8157e9	-0.25262383
25	0x3db540e5	0.08850268
26	0xbd9c07d9	-0.07618684
27	0xbca3cb3f	-0.019994376
28	0x3e6026ed	0.21889849
29	0x3c201aa0	0.009771973
30	0xbdbccf24	-0.092191964
31	0xbe17c724	-0.1482206
32	0x3d5fff59	0.054686878
33	0x3e58b70b	0.21163575
34	0x3e8c488d	0.27399102
35	0x3e1e6c28	0.15470946
36	0x3e066097	0.13122784
37	0x3d965950	0.07341254
38	0x3e9d7cf3	0.3075939
39	0x3e697148	0.2279712
40	0x3ea36902	0.31916052
41	0x3e277a25	0.16355188
42	0xbe1e56bc	-0.15462774
43	0xbe8c3dbb	-0.27390847
44	0xbd22b6f9	-0.039725278
45	0x3eaa3784	0.3324548
46	0x3e76f2e0	0.24116087
47	0xbecf873f	-0.40532872
48	0x3e3c22d4	0.18372661
49	0xbd38528e	-0.045000605
50	0xbd75db7f	-0.06002378
51	0x3d3834ac	0.044972107
52	0x3d2e6415	0.042575914
53	0x3dc334d6	0.09531562
54	0x3dc9f739	0.09861607
55	0x3dfa7d45	0.122309245
56	0xbd4d1315	-0.050067026
57	0x3e370b8f	0.17875503
58	0x3ead597f	0.33857343
59	0x3c858fee	0.016303983
60	0x3e4c9669	0.19979252
61	0x3d801998	0.062548816
62	0x3e6abd88	0.22923863
63	0xbed21b66	-0.41036528
64	0xbe840ffa	-0.2579344
65	0x3e4f3475	0.20234855
66	0xbe553b8e	-0.208235
67	0xbec24ed9	-0.3795078
68	0xbec89952	-0.39179474
69	0x3de817bb	0.11332651
70	0x3e56825c	0.20948166
71	0x3e530ba2	0.20609906
72	0x3e066214	0.13123351
73	0x3e22f387	0.15913211
74	0xbe6bc3f9	-0.23023976
75	0xbb715ee5	-0.0036830243
76	0xbe24dbb6	-0.16099438
77	0xbe488b6d	-0.19584437
78	0xbe3af747	-0.18258391
79	0x3e39e198	0.18152463
80	0x3dfa9960	0.12236285
81	0xbe27fad8	-0.16404283
82	0xbe3b1470	-0.18269515
83	0x3e3a3bfa	0.18186942
84	0xbde623b8	-0.112372816
85	0x3e584820	0.21121264
86	0x3e0ffa68	0.14060366
87	0xbdd706dc	-0.10499355
88	0xbdc6daec	-0.09709725
89	0xbd331a30	-0.043726146
90	0x3e2c10ba	0.16803256
91	0xbe5bf782	-0.21481135
92	0x3c878ae0	0.016545713
93	0xbe741dc2	-0.23839477
94	0x3d36db68	0.044642836
95	0x3cd0c840	0.025486112
96	0xbe997aac	-0.29976404
97	0xbe2c2fe4	-0.16815144
98	0x3e554798	0.20828092
99	0xbef30564	-0.4746505
100	0xbec57e7e	-0.38573068
101	0xbe1f5b75	-0.15562232
102	0x3db8c0a6	0.0902112
103	0x3e2d3bac	0.16917294
104	0x3d6b78ce	0.057488255
105	0xbe5e1815	-0.21688874
106	0xbdc03a5b	-0.093861304
107	0xbe0313eb	-0.12800567
108	0x3bd12d0b	0.0063835434
109	0x3e648024	0.22314507
110	0x3e933c1c	0.28756797
111	0x3e51434d	0.2043583
112	0xbe410244	-0.1884852
113	0x3e7a9365	0.24470289
114	0x3e0d6104	0.1380654
115	0x3e9d7792	0.30755287
116	0xbde6da67	-0.11272126
117	0x3d5f3bad	0.05450027
118	0xbc5df5ae	-0.013547344
119	0x3e97ce6c	0.29649675
120	0x3df8a139	0.12140126
121	0xbdf6a4c4	-0.12043145
122	0x3e08c6b5	0.1335705
123	0xbea3e7ad	-0.32012692
124	0x3e239221	0.15973713
125	0x3e27efa9	0.16400017
126	0x3e1ab42c	0.15107793
127	0xbef13634	-0.47111666
128	0x3dcdd3a8	0.10050136
129	0x3e07de94	0.132685
130	0x3ce0ae20	0.02742678
131	0xbe50d1e0	-0.20392561
132	0x3d3e8938	0.04651758
133	0xbe7a0e4a	-0.24419513
134	0xbe580698	-0.21096265
135	0xbe4f8e76	-0.20269188
136	0x3da80d10	0.082056165
137	0x3cc09c10	0.023511916
138	0xbdf2465c	-0.11829826
139	0xbe5b05e0	-0.2138896
140	0x3d4601f0	0.04834169
141	0xbdcc58ec	-0.09977898
142	0xbdd2c5a4	-0.10291603
143	0x3e08b78c	0.13351268
144	0x3e5c5e0c	0.21520251
145	0xbe0d20d4	-0.13782054
146	0xbe1e4966	-0.15457687
147	0xbde122cf	-0.10992967
148	0x3e7c79b6	0.24655804
149	0x3a02ed00	0.0004994422
150	0xbdfab084	-0.12240699
151	0xbe79e438	-0.24403465
152	0xbe761c3a	-0.24034205
153	0xbcca2018	-0.024673507
154	0x3e70bd00	0.23509598
155	0x3dff7450	0.12473357
156	0xbe4fe13a	-0.20300761
157	0xbe4b107f	-0.19830512
158	0x3dd58a7f	0.10426807
159	0xbcfde644	-0.030993588
160	0xbe67ee9d	-0.22649617
161	0x3cc51cca	0.02406158
162	0x3d0a3b4d	0.03374796
163	0x3d8bc02c	0.06823763
164	0xbe2f4e65	-0.17119749
165	0xbe89a526	-0.2688381
166	0xbd8c1041	-0.06839038
167	0x3dd72085	0.105042495
168	0x3b1067f8	0.0022034626
169	0x3d5e8761	0.054328326
170	0x3db7f5be	0.089824185
171	0xbdd2dfe5	-0.10296611
172	0x3e010454	0.12599307
173	0x3cae8d0d	0.021307493
174	0xbe4d02a2	-0.20020536
175	0xbda1b67c	-0.07896134
176	0xbe42ed3d	-0.19035812
177	0x3e7ae738	0.24502265
178	0x3d85c9d3	0.065326355
179	0x3e33e0f8	0.17566288
180	0x3e371c9c	0.17882007
181	0xbdbdb079	-0.09262175
182	0x3d91fd38	0.07128376
183	0x3d42704c	0.047470376
184	0x3e86c900	0.26325226
185	0x3e84bf95	0.25927415
186	0x3e28e4f7	0.16493593
187	0x3e09208a	0.13391319
188	0x3de1d8be	0.110276684
189	0xbd161d55	-0.036649067
190	0x3e8fa2f2	0.28054005
191	0xbecd9cbe	-0.40158647
192	0xbd7216b0	-0.059103668
193	0x3eb9ad7a	0.36265165
194	0xbe2d1ed1	-0.16906287
195	0xbe3890c1	-0.18023969
196	0xbc3ab740	-0.011396229
197	0x3d9b8e1b	0.07595464
198	0x3e667b44	0.2250796
199	0x3ea63520	0.32462406
200	0xbd9a2694	-0.075268894
201	0x3c2fc73f	0.010728656
202	0xbdfb700d	-0.12277231
203	0xbf0a0a07	-0.5392155
204	0xbc3db5d8	-0.011578999
205	0xbd8925f0	-0.06696689
206	0x3dd29951	0.10283149
207	0x3dba0e62	0.090847746
208	0x3e4a0733	0.19729309
209	0x3e19e61a	0.15029183
210	0xbe7ec67d	-0.24880405
211	0xbe22db28	-0.15903914
212	0xbd0c43f0	-0.034244478
213	0x3e0a2824	0.13491875
214	0x3e459a3b	0.19297116
215	0xbe56ace3	-0.20964389
216	0xbe82beb7	-0.2553613
217	0xbc1c8e1c	-0.009555366
218	0xbe3d5a4a	-0.18491474
219	0x3e2b98e3	0.1675754
220	0xbd13c62b	-0.03607766
221	0x3e1b26e7	0.15151559
222	0xbe047cc0	-0.12938213
223	0xbd82309d	-0.063569285
224	0x3d27fced	0.041012693
225	0x3cc01d8a	0.023451585
226	0xbe66bf02	-0.22533801
227	0x3db5059e	0.08838962
228	0x3c63233a	0.013863379
229	0x3dbd1573	0.09232607
230	0xbd2d1571	-0.042256776
231	0xbe0fe489	-0.14052023
232	0x3dbd521f	0.09244179
233	0x3e1fe8ab	0.156161
234	0x3d06c5a8	0.032903343
235	0x3e55c5ae	0.2087619
236	0xbe819d6d	-0.2531542
237	0xbdf1ee44	-0.11813024
238	0xbe877fe8	-0.26464772
239	0x3e3c7fe0	0.18408155
240	0x3e762ee8	0.24041331
241	0xbd84a8c1	-0.064775
242	0xbe731f7b	-0.23742478
243	0x3e51fb59	0.20506038
244	0x3d84a913	0.06477561
245	0x3d74aa69	0.05973283
246	0xbdc446e7	-0.09583836
247	0x3db2585f	0.08708262
248	0xbe2ed11f	-0.17071961
249	0xbd5dab25	-0.054118294
250	0xbe2b918f	-0.16754745
251	0x3e533c73	0.20628528
252	0xbe3ad066	-0.1824356
253	0xbe81f808	-0.25384545
254	0xbc98e16f	-0.018662183
255	0x3dfdf85a	0.12400885

cbam.channel_attention.shared_MLP.2.weight f4 [16, 16, 1, 1]
0	0xbda8034e	-0.08203755
1	0x3d2f1b11	0.042750422
2	0x3e2c470f	0.16823982
3	0x3e539127	0.2066084
4	0xbe984b41	-0.29744914
5	0xbd2ac0d0	-0.041687787
6	0x3d965994	0.073413044
7	0xbe37b6fe	-0.179409
8	0xbe461062	-0.19342187
9	0xbc4218ae	-0.011846704
10	0xbd93ede3	-0.07223108
11	0xbe390277	-0.18067347
12	0x3d6af8dc	0.057366237
13	0x3e296c65	0.16545255
14	0x3e6593ed	0.2241971
15	0xbd0164d2	-0.03159029
16	0xbc37e1aa	-0.011223236
17	0xbe5b4db8	-0.21416366
18	0x3e273c5a	0.16331616
19	0x3db8fd35	0.090326704
20	0xbc3e635d	-0.01162037
21	0x3c8c19a0	0.017102063
22	0xbd6a38ee	-0.0571832
23	0x3e4e75ea	0.20162168
24	0x3e3a48d0	0.18191838
25	0xbddc3559	-0.10752363
26	0x3dfca4af	0.123360984
27	0xbe6d3261	-0.2316375
28	0x3ea2bc9e	0.31784528
29	0xbbd0f8f8	-0.0063773356
30	0xbe41adf3	-0.18914013
31	0xbe1ef54c	-0.15523261
32	0xbde8ac1b	-0.113609515
33	0x3e298a0f	0.16556571
34	0x3eb80598	0.35941768
35	0x3e768d6f	0.2407739
36	0xbde7fbfb	-0.11327358
37	0x3dbf3220	0.093357325
38	0x3e775b1d	0.2415585
39	0x3ea24746	0.31695002
40	0x3e308f20	0.17242098
41	0x3e442ff5	0.19158919
42	0x3e3a018c	0.18164653
43	0x3e08343b	0.13301174
44	0xbe8cc181	-0.27491382
45	0x3e4f5065	0.20245512
46	0xbde7bcb8	-0.11315292
47	0x3e0101d0	0.12598348
48	0x3eab96f9	0.3351362
49	0x3d7609f7	0.060068097
50	0x3e697d37	0.22801672
51	0xbd6747e6	-0.056465052
52	0xbc9c9608	-0.01911451
53	0xbd7b3780	-0.061332226
54	0x3e851168	0.25989842
55	0x3e3ff678	0.18746364
56	0xbe246780	-0.16055107
57	0x3e6277fc	0.22116083
58	0xbd94951a	-0.07255001
59	0x39f0a5d6	0.00045899925
60	0xbe996671	-0.2996097
61	0xbd2bf502	-0.041981705
62	0x3e1af5eb	0.15132873
63	0xbe11532c	-0.14191884
64	0xbe15e3f4	-0.14637738
65	0x3e785b47	0.2425357
66	0xbea0abcd	-0.31381074
67	0x3cf4d16b	0.029885015
68	0xbe14cde4	-0.14531666
69	0xbd3e1fc8	-0.046417028
70	0xbdf0681a	-0.11738606
71	0xbea89d11	-0.32932332
72	0xbcf5e830	-0.030017942
73	0x3d13047e	0.035892956
74	0xbe2f9ded	-0.17150088
75	0xbeb02231	-0.34401086
76	0x3c12eaa6	0.008967077
77	0x3d9b2d21	0.07576967
78	0x3d2eb623	0.042654168
79	0xbe49451a	-0.19655266
80	0x3e55cf23	0.20879798
81	0x3e3d676b	0.18496482
82	0x3e5adf18	0.21374166
83	0xbce586f5	-0.028018454
84	0x3eb0a01f	0.34497163
85	0xbdbf5c8c	-0.09343824
86	0x3e84a03a	0.25903493
87	0xbd59c0f1	-0.05316252
88	0x3e624caa	0.22099558
89	0x3d54f05e	0.051987045
90	0x3e412a6f	0.18863843
91	0x3e9190a1	0.28430656
92	0x3dc3b0b8	0.09555191
93	0xbdbaec06	-0.09127049
94	0xbce1e9d3	-0.027577316
95	0xbd9edfa2	-0.07757498
96	0x3dcd077e	0.10011195
97	0x3cd650cc	0.026161574
98	0xbe290340	-0.16505146
99	0xbe77d066	-0.24200591
100	0x3e00f5f5	0.12593825
101	0x3a1a3200	0.00058820844
102	0x3e5aefd3	0.21380548
103	0xbd908112	-0.07055868
104	0xbe701a3c	-0.23447508
105	0xbde4b61d	-0.11167548
106	0xbe341849	-0.17587389
107	0x3e64cb34	0.22343141
108	0x3e3a8c74	0.18217641
109	0xbdf85efc	-0.12127492
110	0x3dffeae0	0.12495971
111	0xbccb9e41	-0.024855735
112	0xbe939232	-0.28822476
113	0x3e000422	0.12501577
114	0x3e4c0f3a	0.19927683
115	0xbd4c29b7	-0.04984447
116	0x3d8cb515	0.06870476
117	0x3e48cf0e	0.19610235
118	0xbe6380b6	-0.22217068
119	0xbc0a5d81	-0.008445145
120	0xbe48d5ec	-0.19612855
121	0xbe5e3686	-0.21700487
122	0xbd360f0b	-0.04444794
123	0x3daad145	0.08340696
124	0x3f229e37	0.63522667
125	0x3d998bbf	0.074973576
126	0xbe913013	-0.2835699
127	0x3e215ed0	0.15758824
128	0x3e8e2a74	0.27766764
129	0xbe476e10	-0.1947558
130	0x3e2c1b39	0.1680726
131	0x3a340786	0.0006867576
132	0x3ea05d02	0.3132096
133	0xbc3895a0	-0.011266142
134	0x3eb6e971	0.35724977
135	0x3e0db35d	0.13837953
136	0x3e4e8f1e	0.20171782
137	0xbe347dcc	-0.17626113
138	0xbe3813a0	-0.17976236
139	0x3cdd3bdc	0.027006082
140	0x3f0e326a	0.55545676
141	0xbd23fa57	-0.040033665
142	0x3dffbe9f	0.1248753
143	0xbcbfc2b6	-0.023408275
144	0xba4c3136	-0.00077893154
145	0x3e33745e	0.1752486
146	0x3d2af7bf	0.041740175
147	0x3b332074	0.0027332576
148	0x3e51ae25	0.20476587
149	0x3e41e74c	0.18935889
150	0x3e4f4bec	0.20243806
151	0x3dc3ec55	0.09566561
152	0xbe69a594	-0.2281707
153	0xbdd2c222	-0.10290934
154	0xbe23b934	-0.15988618
155	0xbd77483e	-0.06037163
156	0x3ec40a5c	0.38289154
157	0xbda98f31	-0.08279265
158	0x3ae4fd89	0.0017470579
159	0xbe25b116	-0.16180834
160	0xbf00d5d9	-0.50326306
161	0x3e70e109	0.23523344
162	0xbea72398	-0.32644343
163	0xbe8a0015	-0.26953188
164	0xbe1202d6	-0.14258894
165	0x3ce09ba0	0.027417958
166	0xbd6cdbe7	-0.057826903
167	0xbef26542	-0.4734288
168	0x3e765a9e	0.24058005
169	0x3e2bab28	0.1676451
170	0xbe10ce5c	-0.1414122
171	0xbe61d3e3	-0.22053485
172	0x3da4d96d	0.08049283
173	0x3b56023f	0.0032655147
174	0x3e2059a2	0.15659192
175	0xbd120df3	-0.035657834
176	0x3dbe32ab	0.09287008
177	0x3c51a5b4	0.012795854
178	0xbddc1e73	-0.10747995
179	0x3e654c33	0.22392349
180	0x3e123358	0.14277399
181	0x3e629a72	0.22129229
182	0xbdde7a6b	-0.10863193
183	0xbeb0347b	-0.3441504
184	0xbc7a8100	-0.015289545
185	0x3d94013b	0.07226797
186	0x3e712b71	0.23551728
187	0x3dbe81d0	0.093021035
188	0xbdb184d5	-0.08667914
189	0x3c492e28	0.012279071
190	0xbe4cf207	-0.20014201
191	0xbbc2d4aa	-0.0059457617
192	0x3e956e3a	0.2918566
193	0xbd85071d	-0.064954974
194	0x3e70068f	0.23440002
195	0x3e7755dc	0.24153847
196	0x3dc87eab	0.09789785
197	0x3d98cbbc	0.07460734
198	0x3c88c19b	0.01669388
199	0xbce86419	-0.028368043
200	0xbe57eeda	-0.21087208
201	0xbdde6ac3	-0.10860207
202	0x3db1a73a	0.08674474
203	0xbdb806f6	-0.08985703
204	0xbedf5245	-0.43617454
205	0x3e887a94	0.2665602
206	0x3db69bf5	0.08916465
207	0xbd1f06a7	-0.038824704
208	0x3e3197ee	0.17343113
209	0xbe0d46e6	-0.13796577
210	0xbda593b3	-0.08084812
211	0xbe40d7b9	-0.18832292
212	0x3e7eea3a	0.24894038
213	0x3e1e6496	0.15468058
214	0xbe109e0b	-0.14122789
215	0x3cbfaa65	0.02339668
216	0x3e43b256	0.19110999
217	0xbdc526bd	-0.09626529
218	0xbe667114	-0.22504073
219	0x3d7f963a	0.062399127
220	0x3e4cc373	0.19996433
221	0xbd3bb40a	-0.045825996
222	0x3d9b4e88	0.07583338
223	0x3e2990fd	0.16559215
224	0x3eb49d74	0.35276377
225	0xbbddf8b2	-0.0067740316
226	0x3c113dd4	0.008864839
227	0xbd1d5205	-0.038408298
228	0x3dddbfe2	0.10827614
229	0xbe4205b4	-0.18947488
230	0x3defa6f8	0.11701769
231	0x3d8e6837	0.06953471
232	0xbc8c0270	-0.017091006
233	0x3b96a210	0.004596956
234	0xbe1a6511	-0.15077616
235	0xbe46f349	-0.19428743
236	0x3e45d1f4	0.19318372
237	0x3dd2cae8	0.102926075
238	0x3e3078af	0.17233537
239	0x3e1b12e1	0.1514392
240	0x3e706b68	0.23478472
241	0x3e28d912	0.16489056
242	0x3e4d36f8	0.200405
243	0x3e1a8dd4	0.15093166
244	0xbd05366c	-0.032522604
245	0xbe339c96	-0.17540202
246	0x3eec9368	0.46206212
247	0x3eb8d521	0.36100104
248	0x3da426f0	0.08015239
249	0x3e74d7ee	0.23910496
250	0x3d90231f	0.07037949
251	0x3e496316	0.19666705
252	0x3ef1f6ea	0.47258693
253	0xbd03a348	-0.03213814
254	0xbe84854c	-0.25882947
255	0x3e1ced54	0.15324908

cbam.spatial_attention.conv2d.weight f4 [1, 2, 3, 3]
0	0xbcd37435	-0.025812248
1	0x3dc01b25	0.093801774
2	0xbe3902d2	-0.18067482
3	0xbd293feb	-0.041320723
4	0x3b39a263	0.002832555
5	0x3e29a00b	0.16564958
6	0xbd4f5eab	-0.05062739
7	0xbdaa2ee8	-0.08309728
8	0xbe05d878	-0.13070858
9	0x3e47b1eb	0.19501464
10	0x3e903f2d	0.281732
11	0x3e7ebe17	0.24877201
12	0x3e18b75f	0.149137
13	0x3e8395d1	0.25700238
14	0x3e8e5182	0.2779656
15	0x3e275aaf	0.16343187
16	0xbe13fc2c	-0.14451665
17	0x3da75021	0.0816958

fc.weight f4 [2, 16]
0	0x3cc83f00	0.024444103
1	0xbdbb3fb5	-0.091430105
2	0x3da50688	0.08057886
3	0x3dab43f0	0.083625674
4	0xbec261f9	-0.37965372
5	0xbdd1b885	-0.102402724
6	0xbe05a1ff	-0.13050078
7	0xbe129698	-0.1431526
8	0xbeb1da68	-0.34736943
9	0xbe4c800b	-0.1997072
10	0xbda6f252	-0.08151688
11	0xbd0d6754	-0.03452237
12	0xbbee6736	-0.0072754873
13	0xbe28a3a6	-0.16468677
14	0xbe4726a0	-0.19448328
15	0xbe1e8d3e	-0.15483567
16	0x3d91b53c	0.07114646
17	0x3e5fe031	0.21862866
18	0xbd91da55	-0.07121722
19	0xbe5cdb59	-0.2156805
20	0x3e4f8316	0.20264849
21	0x3eaeaa80	0.34114456
22	0xbdfe9d5d	-0.124323584
23	0x3c998582	0.01874042
24	0x3d3794f1	0.044819776
25	0x3cfa0569	0.030520158
26	0x3eded4e4	0.43521798
27	0x3d2c81ac	0.042115852
28	0xbe92c771	-0.28667787
29	0xbddf5bc8	-0.10906178
30	0x3d575618	0.05257234
31	0x3eadb5cb	0.3392776

fc.bias f4 [2]
0	0x3d873a42	0.06602909
1	0x3d5418a5	0.051781315
